aec_best_model.pth (torch, 3336 bytes, 4 tensors)

fc1.weight f4 [15, 16]
000000 78 72 b9 3e 05 89 93 be d7 22 d7 3c 5f 97 8d 3e
       0.36220145 -0.28815475 0.02626173 0.2765455
000010 91 7a 14 3f b4 07 8f be 72 19 04 be b7 56 96 be
       0.5799952 -0.27935565 -0.12900332 -0.29363033
000020 e0 01 81 3d 94 37 d3 be 9a 4b 28 3e 12 ee b6 bc
       0.06299186 -0.4125334 0.1643509 -0.022330318
000030 c4 39 80 be 18 c4 87 3e 61 d8 9c 3d 72 fe 4e 3e
       -0.25044072 0.26516795 0.076584585 0.2021425
000040 cd 29 89 bd e2 62 1b be 95 0f ce 3d f9 1f 1b bd
       -0.06697426 -0.1517444 0.10061566 -0.03787229
000050 9d f5 88 bd 71 d8 04 3e 0d ee 42 bd 18 e6 af 3d
       -0.06687472 0.12973191 -0.047590304 0.08588809
000060 4e 1c 54 bb 01 2e d8 3d b9 e5 4e 3d 3a fa 2b be
       -0.0032365504 0.105556495 0.05051205 -0.16794673
000070 89 2e 9a 3d cb 0f 04 3e 64 de b1 bd 56 29 3a 3e
       0.07528407 0.1289665 -0.08684996 0.18179831
000080 50 c3 04 3d 98 0b 02 be bf b8 54 3e 83 ea b0 3d
       0.032412827 -0.12699735 0.207736 0.086384796
000090 fb c2 47 3e 0e 43 96 bd 96 84 04 3e 68 ce d3 bc
       0.19507973 -0.073370084 0.12941203 -0.025855258
0000a0 e9 c8 3c bd 94 f8 4f be 86 db af bd e9 d2 9d bd
       -0.04609004 -0.20309669 -0.08586793 -0.077062435
0000b0 54 b9 a0 3d ea 58 04 3e 75 9e 4d be eb ca 8d be
       0.078478485 0.12924543 -0.20079978 -0.27693877
0000c0 e5 fe a1 be f1 57 77 be 7f 40 94 3d 00 a0 13 3c
       -0.31639782 -0.2415464 0.07238864 0.009010315
0000d0 dc 71 d8 bd f2 3a 2b 3d 15 12 e8 3c 10 85 68 3e
       -0.10568592 0.04180426 0.028328935 0.2270701
0000e0 bf ba a4 3e f1 df 5b 3e a0 88 55 be 8a 53 a0 3e
       0.32173726 0.21472146 -0.208529 0.31313735
0000f0 26 4b 85 3e a3 37 34 be 84 c1 6f bc df 2a 42 3e
       0.26033896 -0.17599349 -0.01463354 0.18961667
000100 74 9b fc be e9 f4 71 bd a7 e0 35 3c b8 46 e5 3d
       -0.4933735 -0.059071455 0.011100925 0.11195129
000110 68 30 27 be 99 7f ca 3d 12 f4 8e 3d 8e e3 2a bd
       -0.1632706 0.098876186 0.069801465 -0.04172092
000120 82 28 77 be ff 7a f2 3d e9 23 1d be d0 87 eb bd
       -0.24136546 0.11839866 -0.1534573 -0.115005136
000130 32 ed 6f 3d 5d 3a a9 bc 4d 6c 66 3c b3 ab c5 be
       0.058575816 -0.020657713 0.014063907 -0.3860756
000140 87 d8 76 3e 7f 59 07 3e e8 9d 6b 3e 0f 4e 6d 3d
       0.24106036 0.13217734 0.23009455 0.05793577
000150 1a 38 b7 3c 4f b4 10 be 42 b7 c9 be 0a 19 32 be
       0.022365618 -0.14131282 -0.39397627 -0.17392364
000160 17 83 e9 3c 64 af 2f be ce 6b 67 bd 66 17 ad be
       0.028504891 -0.1715675 -0.056499295 -0.33806914
000170 80 db 00 be de 9b d5 3b 9c fe 85 3d b5 0b 00 be
       -0.12583733 0.006518825 0.065427035 -0.12504466
000180 3d 97 a7 be a6 bc 9a be 96 0c 60 bd b4 01 f3 be
       -0.32732573 -0.30222052 -0.054699503 -0.47462237
000190 1b 3d 9c 3d 4a 4b 23 3d 76 bd 1f 3d 36 d2 95 3e
       0.076288424 0.039866723 0.038999043 0.2926194
0001a0 58 a7 08 bd a4 db d6 3b 79 3e 6a bd 17 1b 0b 3e
       -0.033362716 0.006556945 -0.057188485 0.13584553
0001b0 4e aa 0d 3e 58 00 6e 3e bf ff d2 3d 5a 62 8e 3e
       0.13834497 0.23242319 0.10302686 0.2780941
0001c0 c5 3d 3b bd b8 d4 df 3d 70 ed b6 be a0 e7 55 be
       -0.045713205 0.10929245 -0.35728025 -0.20889139
0001d0 50 c4 56 be 06 3b b9 3d 9f 03 16 be c7 88 79 3e
       -0.20973325 0.09044461 -0.14649819 0.24368583
0001e0 32 24 ce 3c d4 4e 4e 3e 3d eb 1b bb 26 ad 21 3e
       0.025163744 0.20147258 -0.0023791336 0.15788707
0001f0 ca 27 e5 bd 09 24 0e 3e c4 e3 82 3d ef 0d df bc
       -0.1118923 0.13880934 0.06391099 -0.027228324
000200 57 3f 87 bd bc eb 4b 3b 5c 94 5d bd 46 41 fa 3d
       -0.06603878 0.003111585 -0.054096565 0.12219481
000210 d0 3e 4a be 04 6b e3 bd 96 e0 7a be 26 63 4b be
       -0.19750524 -0.11104396 -0.24499735 -0.19862041
000220 84 11 40 3d f9 62 5d be 8b 66 ac bc ed ba c0 3d
       0.046891704 -0.21619786 -0.02104499 0.09410653
000230 3e e7 70 be 33 ae 06 be 59 ba 83 be 43 19 79 3d
       -0.23525712 -0.13152389 -0.2572811 0.060815107
000240 70 a2 95 3e 36 cf 86 be bc 19 ce 3c 33 93 df bb
       0.29225492 -0.26329964 0.025158755 -0.0068229674
000250 37 2a f3 bd 26 ea 62 3e 6c 91 0d bd c0 13 5a be
       -0.11873286 0.22159633 -0.034562513 -0.21296597
000260 01 e5 51 3e f7 7f 4f bd 81 6e 41 be 1e d9 81 3d
       0.20497514 -0.050659146 -0.1888981 0.0634024
000270 11 55 b0 bd 2b 37 50 3d da 92 cb bd 20 54 35 3e
       -0.08609975 0.050833862 -0.09940119 0.17707872
000280 42 c4 48 3d a3 7f 73 bd eb 49 47 bd a4 9b 9a 3e
       0.04901529 -0.059447896 -0.048654478 0.3019687
000290 ec 6d 76 3e 65 27 28 3e 9c 59 c0 3d a4 03 23 3e
       0.2406537 0.16421278 0.09392092 0.15919358
0002a0 c0 92 6d be 07 e1 26 be e9 1a 82 3d cf d9 ee bc
       -0.23200512 -0.16296779 0.06352789 -0.029156594
0002b0 1c 29 4a be a1 b7 04 3e 00 73 57 3e ab d5 53 3e
       -0.19742244 0.12960674 0.21039963 0.20686977
0002c0 0b 5f 83 3b 5a 02 e9 bd 79 ac 18 3e 29 be 7e be
       0.0040091327 -0.11377402 0.14909543 -0.24877228
0002d0 a7 ee 88 3e bd 8b 8c bd 3b 6a b4 bc 94 ee 7f be
       0.26744577 -0.068625905 -0.02202331 -0.24993354
0002e0 b4 34 99 be fb 99 9b be 7e 55 2a be f9 dd 95 3c
       -0.29923022 -0.30390915 -0.16634175 0.018294321
0002f0 5d a3 aa be 2d fb b3 be b7 ba bc 3b 40 88 98 be
       -0.3332776 -0.3515257 0.005759563 -0.2979145
000300 ef 84 2c 3e 74 ed 58 3e 1a 59 b3 3d 53 a4 69 be
       0.16847585 0.21184331 0.08757229 -0.22816591
000310 d2 f4 e5 bd a5 33 a7 3d f6 9a 32 3e e8 14 bd 3d
       -0.112283364 0.08164147 0.17441925 0.09232503
000320 74 e9 ba bd 65 72 7e 3e 84 a9 0b bd 87 8f 5a be
       -0.09126559 0.24848326 -0.03409721 -0.21343814
000330 bf c6 d6 bd 53 2b 13 3d 0c 94 17 be 33 41 14 be
       -0.104871266 0.03592999 -0.14802569 -0.14477997
000340 a9 19 d9 be 8a 96 0b 3e a4 7d 6e bd 1f 52 82 be
       -0.4240239 0.13631645 -0.05822529 -0.25453278
000350 a8 d7 ab 3c 5f 8f 7b 3e 92 71 0c 3e 47 a6 18 be
       0.020976856 0.2456641 0.13715199 -0.1490718
000360 40 5f 2a be 80 07 7f be 9e 74 92 bd 11 3c b8 3d
       -0.16637897 -0.24905205 -0.07151149 0.08995832
000370 ba 0c 13 be 0a f0 ee bd 7e ff 9d be ad 13 a6 bd
       -0.14360324 -0.116668776 -0.30858988 -0.081092216
000380 68 bd a2 be f8 c5 de bd 11 54 9d bd 02 9a 8b be
       -0.3178513 -0.10877603 -0.0768205 -0.27265936
000390 f7 16 62 3e 86 11 57 bd 3e 45 8b 3e d6 50 18 bd
       0.22079073 -0.052506946 0.27201265 -0.037186466
0003a0 3a 39 90 3e e2 e9 47 3e 48 7c 05 3e 20 5f 72 3e
       0.2816866 0.19522813 0.13035691 0.236691
0003b0 0f 6f 32 3e 89 2f 8c 3e bc df 31 3e c5 f6 41 3d
       0.17425178 0.27380016 0.17370504 0.04735448

fc1.bias f4 [15]
000000 d5 51 cc 3e e4 b6 46 be 4f 12 2e bd 21 85 96 bd
       0.39906183 -0.19405705 -0.04249793 -0.07349611
000010 60 e6 bf 3e 59 ef 3f be cb ce 04 3e 4d fa ea bd
       0.3748045 -0.18743648 0.1296951 -0.11473522
000020 2f ef 33 3d da 86 7d 3e 84 d9 e1 3d 3a 56 5f bd
       0.043929275 0.24758473 0.11027816 -0.05452559
000030 a9 b0 56 bd cd 32 5f bd f7 88 8b 3e
       -0.05241457 -0.054491807 0.27252933

fc2.weight f4 [4, 15]
000000 7d cc 7b be 13 f1 57 3e 12 f4 47 be 7f 5e a3 3e
       -0.24589725 0.21088056 -0.19526699 0.31908032
000010 cf f5 b9 be 7c 41 37 be 88 18 18 3f d3 03 73 3e
       -0.3632035 -0.17896074 0.5941243 0.23731928
000020 e3 38 47 be c5 81 19 3e 2c 57 21 be 55 30 95 be
       -0.19455294 0.1499091 -0.1575591 -0.29138437
000030 9c 6c 9f bd 17 07 04 be 80 20 37 3e 70 3b 5e be
       -0.077843875 -0.1289333 0.17883492 -0.21702361
000040 86 4e 97 3c 2f ad 1d be 7a 84 e4 3d 10 d5 ad 3e
       0.01847006 -0.15398096 0.111580804 0.33951616
000050 5c 54 bf bd 47 76 b9 bc d7 c9 2a be 95 ed 60 be
       -0.09342262 -0.022639407 -0.16678558 -0.2196563
000060 26 fa 58 be 6d f1 94 3c b5 19 b2 be c6 cb 23 3e
       -0.21189174 0.018181527 -0.34785238 0.15995702
000070 4b 33 13 3e 93 73 88 bc 9c 2e 59 3f 05 a5 94 bd
       0.14375035 -0.016656673 0.84836745 -0.072580375
000080 08 66 e7 bd 00 79 bd be d2 fb 93 be 31 51 13 3f
       -0.11298758 -0.37006378 -0.2890306 0.57545763
000090 b6 86 e4 bd 49 64 8a be a5 72 83 3e 1c d8 4a 3e
       -0.111585066 -0.27029637 0.25673404 0.19809002
0000a0 e6 dc ca 3e 8f 30 c6 3d de 75 e8 bb 4e 4a ea be
       0.39621657 0.096772306 -0.007094129 -0.45759815
0000b0 ff 1b 2c bd 68 05 79 be a0 7c 9a bd 11 56 00 3e
       -0.042018887 -0.24318469 -0.075433016 0.12532832
0000c0 77 63 af bd 9d 6a 96 3e 0c 93 e6 bd 95 56 a8 be
       -0.08563893 0.29378214 -0.11258516 -0.32878557
0000d0 35 fb 41 be c0 6c c0 bc c9 52 a2 3e 1d 96 1f 3d
       -0.18943484 -0.023489356 0.31703785 0.03896152
0000e0 e4 7d f7 3e cb 05 df 3d ba 59 df 3e 07 51 25 bf
       0.48338234 0.10889777 0.43623143 -0.6457676

fc2.bias f4 [4]
000000 5f 4d d2 be 1a 40 9a 3e 0e 94 66 3e 64 15 56 3b
       -0.41074654 0.3012703 0.22517416 0.0032666558
